…
I1127 01:55:48.569505 37029 net.cpp:275] The NetState phase (0) differed from the phase (1) specified by a rule in layer accuracy
I1127 01:55:48.569725 37029 net.cpp:39] Initializing net from parameters: 
name: "MITIndoorCaffeNet"
layers {
  top: "data"
  top: "label"
  name: "data"
  type: IMAGE_DATA
  image_data_param {
    source: "MIT_train.txt"
    batch_size: 128
    crop_mode: true
    smaller_size: 410
  }
  include {
    phase: TRAIN
  }
  transform_param {
    mirror: true
    crop_size: 227
    mean_file: "/data/sichen/caffe_svcl/caffe/data/ilsvrc12/imagenet_mean.binaryproto"
  }
}
layers {
  bottom: "data"
  top: "conv1"
  name: "conv1"
  type: CONVOLUTION
  blobs_lr: 1
  blobs_lr: 2
  weight_decay: 1
  weight_decay: 0
  convolution_param {
    num_output: 96
    kernel_size: 11
    stride: 4
    weight_filler {
      type: "gaussian"
      std: 0.01
    }
    bias_filler {
      type: "constant"
      value: 0
    }
  }
}
layers {
  bottom: "conv1"
  top: "conv1"
  name: "relu1"
  type: RELU
}
layers {
  bottom: "conv1"
  top: "pool1"
  name: "pool1"
  type: POOLING
  pooling_param {
    pool: MAX
    kernel_size: 3
    stride: 2
  }
}
layers {
  bottom: "pool1"
  top: "norm1"
  name: "norm1"
  type: LRN
  lrn_param {
    local_size: 5
    alpha: 0.0001
    beta: 0.75
  }
}
layers {
  bottom: "norm1"
  top: "conv2"
  name: "conv2"
  type: CONVOLUTION
  blobs_lr: 1
  blobs_lr: 2
  weight_decay: 1
  weight_decay: 0
  convolution_param {
    num_output: 256
    pad: 2
    kernel_size: 5
    group: 2
    weight_filler {
      type: "gaussian"
      std: 0.01
    }
    bias_filler {
      type: "constant"
      value: 1
    }
  }
}
layers {
  bottom: "conv2"
  top: "conv2"
  name: "relu2"
  type: RELU
}
layers {
  bottom: "conv2"
  top: "pool2"
  name: "pool2"
  type: POOLING
  pooling_param {
    pool: MAX
    kernel_size: 3
    stride: 2
  }
}
layers {
  bottom: "pool2"
  top: "norm2"
  name: "norm2"
  type: LRN
  lrn_param {
    local_size: 5
    alpha: 0.0001
    beta: 0.75
  }
}
layers {
  bottom: "norm2"
  top: "conv3"
  name: "conv3"
  type: CONVOLUTION
  blobs_lr: 1
  blobs_lr: 2
  weight_decay: 1
  weight_decay: 0
  convolution_param {
    num_output: 384
    pad: 1
    kernel_size: 3
    weight_filler {
      type: "gaussian"
      std: 0.01
    }
    bias_filler {
      type: "constant"
      value: 0
    }
  }
}
layers {
  bottom: "conv3"
  top: "conv3"
  name: "relu3"
  type: RELU
}
layers {
  bottom: "conv3"
  top: "conv4"
  name: "conv4"
  type: CONVOLUTION
  blobs_lr: 1
  blobs_lr: 2
  weight_decay: 1
  weight_decay: 0
  convolution_param {
    num_output: 384
    pad: 1
    kernel_size: 3
    group: 2
    weight_filler {
      type: "gaussian"
      std: 0.01
    }
    bias_filler {
      type: "constant"
      value: 1
    }
  }
}
layers {
  bottom: "conv4"
  top: "conv4"
  name: "relu4"
  type: RELU
}
layers {
  bottom: "conv4"
  top: "conv5"
  name: "conv5"
  type: CONVOLUTION
  blobs_lr: 1
  blobs_lr: 2
  weight_decay: 1
  weight_decay: 0
  convolution_param {
    num_output: 256
    pad: 1
    kernel_size: 3
    group: 2
    weight_filler {
      type: "gaussian"
      std: 0.01
    }
    bias_filler {
      type: "constant"
      value: 1
    }
  }
}
layers {
  bottom: "conv5"
  top: "conv5"
  name: "relu5"
  type: RELU
}
layers {
  bottom: "conv5"
  top: "pool5"
  name: "pool5"
  type: POOLING
  pooling_param {
    pool: MAX
    kernel_size: 3
    stride: 2
  }
}
layers {
  bottom: "pool5"
  top: "fc6"
  name: "fc6"
  type: INNER_PRODUCT
  blobs_lr: 1
  blobs_lr: 2
  weight_decay: 1
  weight_decay: 0
  inner_product_param {
    num_output: 4096
    weight_filler {
      type: "gaussian"
      std: 0.005
    }
    bias_filler {
      type: "constant"
      value: 1
    }
  }
}
layers {
  bottom: "fc6"
  top: "fc6"
  name: "relu6"
  type: RELU
}
layers {
  bottom: "fc6"
  top: "fc6"
  name: "drop6"
  type: DROPOUT
  dropout_param {
    dropout_ratio: 0.5
  }
}
layers {
  bottom: "fc6"
  top: "fc7"
  name: "fc7"
  type: INNER_PRODUCT
  blobs_lr: 1
  blobs_lr: 2
  weight_decay: 1
  weight_decay: 0
  inner_product_param {
    num_output: 4096
    weight_filler {
      type: "gaussian"
      std: 0.005
    }
    bias_filler {
      type: "constant"
      value: 1
    }
  }
}
layers {
  bottom: "fc7"
  top: "fc7"
  name: "relu7"
  type: RELU
}
layers {
  bottom: "fc7"
  top: "fc7"
  name: "drop7"
  type: DROPOUT
  dropout_param {
    dropout_ratio: 0.5
  }
}
layers {
  bottom: "fc7"
  top: "fc8_MIT"
  name: "fc8_MIT"
  type: INNER_PRODUCT
  blobs_lr: 10
  blobs_lr: 20
  weight_decay: 1
  weight_decay: 0
  inner_product_param {
    num_output: 67
    weight_filler {
      type: "gaussian"
      std: 0.01
    }
    bias_filler {
      type: "constant"
      value: 0
    }
  }
}
layers {
  bottom: "fc8_MIT"
  bottom: "label"
  name: "loss"
  type: SOFTMAX_LOSS
}
state {
  phase: TRAIN
}
I1127 01:55:48.569901 37029 net.cpp:67] Creating Layer data
I1127 01:55:48.569913 37029 net.cpp:356] data -> data
I1127 01:55:48.569936 37029 net.cpp:356] data -> label
I1127 01:55:48.569947 37029 net.cpp:96] Setting up data
I1127 01:55:48.569957 37029 image_data_layer.cpp:30] Opening file MIT_train.txt
I1127 01:55:48.573364 37029 image_data_layer.cpp:45] A total of 5360 images.
I1127 01:55:48.584815 37029 image_data_layer.cpp:73] output data size: 128,3,227,227
I1127 01:55:48.584990 37029 base_data_layer.cpp:36] Loading mean file from/data/sichen/caffe_svcl/caffe/data/ilsvrc12/imagenet_mean.binaryproto
I1127 01:55:48.652530 37029 net.cpp:103] Top shape: 128 3 227 227 (19787136)
I1127 01:55:48.652549 37029 net.cpp:103] Top shape: 128 1 1 1 (128)
I1127 01:55:48.652577 37029 net.cpp:67] Creating Layer conv1
I1127 01:55:48.652593 37029 net.cpp:394] conv1 <- data
I1127 01:55:48.652606 37029 net.cpp:356] conv1 -> conv1
I1127 01:55:48.652617 37029 net.cpp:96] Setting up conv1
I1127 01:55:48.654192 37029 net.cpp:103] Top shape: 128 96 55 55 (37171200)
I1127 01:55:48.654235 37029 net.cpp:67] Creating Layer relu1
I1127 01:55:48.654242 37029 net.cpp:394] relu1 <- conv1
I1127 01:55:48.654249 37029 net.cpp:345] relu1 -> conv1 (in-place)
I1127 01:55:48.654256 37029 net.cpp:96] Setting up relu1
I1127 01:55:48.654263 37029 net.cpp:103] Top shape: 128 96 55 55 (37171200)
I1127 01:55:48.654269 37029 net.cpp:67] Creating Layer pool1
I1127 01:55:48.654273 37029 net.cpp:394] pool1 <- conv1
I1127 01:55:48.654294 37029 net.cpp:356] pool1 -> pool1
I1127 01:55:48.654301 37029 net.cpp:96] Setting up pool1
I1127 01:55:48.654314 37029 net.cpp:103] Top shape: 128 96 27 27 (8957952)
I1127 01:55:48.654324 37029 net.cpp:67] Creating Layer norm1
I1127 01:55:48.654327 37029 net.cpp:394] norm1 <- pool1
I1127 01:55:48.654333 37029 net.cpp:356] norm1 -> norm1
I1127 01:55:48.654341 37029 net.cpp:96] Setting up norm1
I1127 01:55:48.654350 37029 net.cpp:103] Top shape: 128 96 27 27 (8957952)
I1127 01:55:48.654356 37029 net.cpp:67] Creating Layer conv2
I1127 01:55:48.654361 37029 net.cpp:394] conv2 <- norm1
I1127 01:55:48.654367 37029 net.cpp:356] conv2 -> conv2
I1127 01:55:48.654374 37029 net.cpp:96] Setting up conv2
I1127 01:55:48.667474 37029 net.cpp:103] Top shape: 128 256 27 27 (23887872)
I1127 01:55:48.667493 37029 net.cpp:67] Creating Layer relu2
I1127 01:55:48.667511 37029 net.cpp:394] relu2 <- conv2
I1127 01:55:48.667521 37029 net.cpp:345] relu2 -> conv2 (in-place)
I1127 01:55:48.667527 37029 net.cpp:96] Setting up relu2
I1127 01:55:48.667532 37029 net.cpp:103] Top shape: 128 256 27 27 (23887872)
I1127 01:55:48.667537 37029 net.cpp:67] Creating Layer pool2
I1127 01:55:48.667577 37029 net.cpp:394] pool2 <- conv2
I1127 01:55:48.667583 37029 net.cpp:356] pool2 -> pool2
I1127 01:55:48.667590 37029 net.cpp:96] Setting up pool2
I1127 01:55:48.667596 37029 net.cpp:103] Top shape: 128 256 13 13 (5537792)
I1127 01:55:48.667613 37029 net.cpp:67] Creating Layer norm2
I1127 01:55:48.667618 37029 net.cpp:394] norm2 <- pool2
I1127 01:55:48.667624 37029 net.cpp:356] norm2 -> norm2
I1127 01:55:48.667630 37029 net.cpp:96] Setting up norm2
I1127 01:55:48.667635 37029 net.cpp:103] Top shape: 128 256 13 13 (5537792)
I1127 01:55:48.667645 37029 net.cpp:67] Creating Layer conv3
I1127 01:55:48.667649 37029 net.cpp:394] conv3 <- norm2
I1127 01:55:48.667655 37029 net.cpp:356] conv3 -> conv3
I1127 01:55:48.667664 37029 net.cpp:96] Setting up conv3
I1127 01:55:48.708354 37029 net.cpp:103] Top shape: 128 384 13 13 (8306688)
I1127 01:55:48.708374 37029 net.cpp:67] Creating Layer relu3
I1127 01:55:48.708379 37029 net.cpp:394] relu3 <- conv3
I1127 01:55:48.708405 37029 net.cpp:345] relu3 -> conv3 (in-place)
I1127 01:55:48.708411 37029 net.cpp:96] Setting up relu3
I1127 01:55:48.708416 37029 net.cpp:103] Top shape: 128 384 13 13 (8306688)
I1127 01:55:48.708422 37029 net.cpp:67] Creating Layer conv4
I1127 01:55:48.708426 37029 net.cpp:394] conv4 <- conv3
I1127 01:55:48.708436 37029 net.cpp:356] conv4 -> conv4
I1127 01:55:48.708456 37029 net.cpp:96] Setting up conv4
I1127 01:55:48.738991 37029 net.cpp:103] Top shape: 128 384 13 13 (8306688)
I1127 01:55:48.739039 37029 net.cpp:67] Creating Layer relu4
I1127 01:55:48.739045 37029 net.cpp:394] relu4 <- conv4
I1127 01:55:48.739053 37029 net.cpp:345] relu4 -> conv4 (in-place)
I1127 01:55:48.739058 37029 net.cpp:96] Setting up relu4
I1127 01:55:48.739063 37029 net.cpp:103] Top shape: 128 384 13 13 (8306688)
I1127 01:55:48.739073 37029 net.cpp:67] Creating Layer conv5
I1127 01:55:48.739089 37029 net.cpp:394] conv5 <- conv4
I1127 01:55:48.739099 37029 net.cpp:356] conv5 -> conv5
I1127 01:55:48.739106 37029 net.cpp:96] Setting up conv5
I1127 01:55:48.760224 37029 net.cpp:103] Top shape: 128 256 13 13 (5537792)
I1127 01:55:48.760267 37029 net.cpp:67] Creating Layer relu5
I1127 01:55:48.760274 37029 net.cpp:394] relu5 <- conv5
I1127 01:55:48.760287 37029 net.cpp:345] relu5 -> conv5 (in-place)
I1127 01:55:48.760296 37029 net.cpp:96] Setting up relu5
I1127 01:55:48.760310 37029 net.cpp:103] Top shape: 128 256 13 13 (5537792)
I1127 01:55:48.760318 37029 net.cpp:67] Creating Layer pool5
I1127 01:55:48.760323 37029 net.cpp:394] pool5 <- conv5
I1127 01:55:48.760330 37029 net.cpp:356] pool5 -> pool5
I1127 01:55:48.760339 37029 net.cpp:96] Setting up pool5
I1127 01:55:48.760345 37029 net.cpp:103] Top shape: 128 256 6 6 (1179648)
I1127 01:55:48.760355 37029 net.cpp:67] Creating Layer fc6
I1127 01:55:48.760360 37029 net.cpp:394] fc6 <- pool5
I1127 01:55:48.760375 37029 net.cpp:356] fc6 -> fc6
I1127 01:55:48.760383 37029 net.cpp:96] Setting up fc6
I1127 01:55:50.484170 37029 net.cpp:103] Top shape: 128 4096 1 1 (524288)
I1127 01:55:50.484262 37029 net.cpp:67] Creating Layer relu6
I1127 01:55:50.484274 37029 net.cpp:394] relu6 <- fc6
I1127 01:55:50.484287 37029 net.cpp:345] relu6 -> fc6 (in-place)
I1127 01:55:50.484313 37029 net.cpp:96] Setting up relu6
I1127 01:55:50.484321 37029 net.cpp:103] Top shape: 128 4096 1 1 (524288)
I1127 01:55:50.484330 37029 net.cpp:67] Creating Layer drop6
I1127 01:55:50.484335 37029 net.cpp:394] drop6 <- fc6
I1127 01:55:50.484344 37029 net.cpp:345] drop6 -> fc6 (in-place)
I1127 01:55:50.484350 37029 net.cpp:96] Setting up drop6
I1127 01:55:50.484364 37029 net.cpp:103] Top shape: 128 4096 1 1 (524288)
I1127 01:55:50.484371 37029 net.cpp:67] Creating Layer fc7
I1127 01:55:50.484376 37029 net.cpp:394] fc7 <- fc6
I1127 01:55:50.484382 37029 net.cpp:356] fc7 -> fc7
I1127 01:55:50.484391 37029 net.cpp:96] Setting up fc7
I1127 01:55:51.221210 37029 net.cpp:103] Top shape: 128 4096 1 1 (524288)
I1127 01:55:51.221271 37029 net.cpp:67] Creating Layer relu7
I1127 01:55:51.221279 37029 net.cpp:394] relu7 <- fc7
I1127 01:55:51.221292 37029 net.cpp:345] relu7 -> fc7 (in-place)
I1127 01:55:51.221365 37029 net.cpp:96] Setting up relu7
I1127 01:55:51.221372 37029 net.cpp:103] Top shape: 128 4096 1 1 (524288)
I1127 01:55:51.221380 37029 net.cpp:67] Creating Layer drop7
I1127 01:55:51.221385 37029 net.cpp:394] drop7 <- fc7
I1127 01:55:51.221393 37029 net.cpp:345] drop7 -> fc7 (in-place)
I1127 01:55:51.221400 37029 net.cpp:96] Setting up drop7
I1127 01:55:51.221406 37029 net.cpp:103] Top shape: 128 4096 1 1 (524288)
I1127 01:55:51.221415 37029 net.cpp:67] Creating Layer fc8_MIT
I1127 01:55:51.221420 37029 net.cpp:394] fc8_MIT <- fc7
I1127 01:55:51.221426 37029 net.cpp:356] fc8_MIT -> fc8_MIT
I1127 01:55:51.221434 37029 net.cpp:96] Setting up fc8_MIT
I1127 01:55:51.233373 37029 net.cpp:103] Top shape: 128 67 1 1 (8576)
I1127 01:55:51.233394 37029 net.cpp:67] Creating Layer loss
I1127 01:55:51.233399 37029 net.cpp:394] loss <- fc8_MIT
I1127 01:55:51.233418 37029 net.cpp:394] loss <- label
I1127 01:55:51.233425 37029 net.cpp:356] loss -> (automatic)
I1127 01:55:51.233432 37029 net.cpp:96] Setting up loss
I1127 01:55:51.233451 37029 net.cpp:103] Top shape: 1 1 1 1 (1)
I1127 01:55:51.233456 37029 net.cpp:109]     with loss weight 1
I1127 01:55:51.233525 37029 net.cpp:170] loss needs backward computation.
I1127 01:55:51.233530 37029 net.cpp:170] fc8_MIT needs backward computation.
I1127 01:55:51.233535 37029 net.cpp:170] drop7 needs backward computation.
I1127 01:55:51.233537 37029 net.cpp:170] relu7 needs backward computation.
I1127 01:55:51.233541 37029 net.cpp:170] fc7 needs backward computation.
…
I1127 01:55:51.234851 37029 net.cpp:275] The NetState phase (1) differed from the phase (0) specified by a rule in layer data
I1127 01:55:51.235106 37029 net.cpp:39] Initializing net from parameters: 
name: "MITIndoorCaffeNet"
layers {
  top: "data"
  top: "label"
  name: "data"
  type: IMAGE_DATA
  image_data_param {
    source: "MIT_test.txt"
    batch_size: 128
    crop_mode: true
    smaller_size: 410
  }
  include {
    phase: TEST
  }
  transform_param {
    mirror: false
    crop_size: 227
    mean_file: "/data/sichen/caffe_svcl/caffe/data/ilsvrc12/imagenet_mean.binaryproto"
  }
}
layers {
  bottom: "data"
  top: "conv1"
  name: "conv1"
  type: CONVOLUTION
  blobs_lr: 1
  blobs_lr: 2
  weight_decay: 1
  weight_decay: 0
  convolution_param {
    num_output: 96
    kernel_size: 11
    stride: 4
    weight_filler {
      type: "gaussian"
      std: 0.01
    }
    bias_filler {
      type: "constant"
      value: 0
    }
  }
}
layers {
  bottom: "conv1"
  top: "conv1"
  name: "relu1"
  type: RELU
}
layers {
  bottom: "conv1"
  top: "pool1"
  name: "pool1"
  type: POOLING
  pooling_param {
    pool: MAX
    kernel_size: 3
    stride: 2
  }
}
layers {
  bottom: "pool1"
  top: "norm1"
  name: "norm1"
  type: LRN
  lrn_param {
    local_size: 5
    alpha: 0.0001
    beta: 0.75
  }
}
layers {
  bottom: "norm1"
  top: "conv2"
  name: "conv2"
  type: CONVOLUTION
  blobs_lr: 1
  blobs_lr: 2
  weight_decay: 1
  weight_decay: 0
  convolution_param {
    num_output: 256
    pad: 2
    kernel_size: 5
    group: 2
    weight_filler {
      type: "gaussian"
      std: 0.01
    }
    bias_filler {
      type: "constant"
      value: 1
    }
  }
}
layers {
  bottom: "conv2"
  top: "conv2"
  name: "relu2"
  type: RELU
}
layers {
  bottom: "conv2"
  top: "pool2"
  name: "pool2"
  type: POOLING
  pooling_param {
    pool: MAX
    kernel_size: 3
    stride: 2
  }
}
layers {
  bottom: "pool2"
  top: "norm2"
  name: "norm2"
  type: LRN
  lrn_param {
    local_size: 5
    alpha: 0.0001
    beta: 0.75
  }
}
layers {
  bottom: "norm2"
  top: "conv3"
  name: "conv3"
  type: CONVOLUTION
  blobs_lr: 1
  blobs_lr: 2
  weight_decay: 1
  weight_decay: 0
  convolution_param {
    num_output: 384
    pad: 1
    kernel_size: 3
    weight_filler {
      type: "gaussian"
      std: 0.01
    }
    bias_filler {
      type: "constant"
      value: 0
    }
  }
}
layers {
  bottom: "conv3"
  top: "conv3"
  name: "relu3"
  type: RELU
}
layers {
  bottom: "conv3"
  top: "conv4"
  name: "conv4"
  type: CONVOLUTION
  blobs_lr: 1
  blobs_lr: 2
  weight_decay: 1
  weight_decay: 0
  convolution_param {
    num_output: 384
    pad: 1
    kernel_size: 3
    group: 2
    weight_filler {
      type: "gaussian"
      std: 0.01
    }
    bias_filler {
      type: "constant"
      value: 1
    }
  }
}
layers {
  bottom: "conv4"
  top: "conv4"
  name: "relu4"
  type: RELU
}
layers {
  bottom: "conv4"
  top: "conv5"
  name: "conv5"
  type: CONVOLUTION
  blobs_lr: 1
  blobs_lr: 2
  weight_decay: 1
  weight_decay: 0
  convolution_param {
    num_output: 256
    pad: 1
    kernel_size: 3
    group: 2
    weight_filler {
      type: "gaussian"
      std: 0.01
    }
    bias_filler {
      type: "constant"
      value: 1
    }
  }
}
layers {
  bottom: "conv5"
  top: "conv5"
  name: "relu5"
  type: RELU
}
layers {
  bottom: "conv5"
  top: "pool5"
  name: "pool5"
  type: POOLING
  pooling_param {
    pool: MAX
    kernel_size: 3
    stride: 2
  }
}
layers {
  bottom: "pool5"
  top: "fc6"
  name: "fc6"
  type: INNER_PRODUCT
  blobs_lr: 1
  blobs_lr: 2
  weight_decay: 1
  weight_decay: 0
  inner_product_param {
    num_output: 4096
    weight_filler {
      type: "gaussian"
      std: 0.005
    }
    bias_filler {
      type: "constant"
      value: 1
    }
  }
}
layers {
  bottom: "fc6"
  top: "fc6"
  name: "relu6"
  type: RELU
}
layers {
  bottom: "fc6"
  top: "fc6"
  name: "drop6"
  type: DROPOUT
  dropout_param {
    dropout_ratio: 0.5
  }
}
layers {
  bottom: "fc6"
  top: "fc7"
  name: "fc7"
  type: INNER_PRODUCT
  blobs_lr: 1
  blobs_lr: 2
  weight_decay: 1
  weight_decay: 0
  inner_product_param {
    num_output: 4096
    weight_filler {
      type: "gaussian"
      std: 0.005
    }
    bias_filler {
      type: "constant"
      value: 1
    }
  }
}
layers {
  bottom: "fc7"
  top: "fc7"
  name: "relu7"
  type: RELU
}
layers {
  bottom: "fc7"
  top: "fc7"
  name: "drop7"
  type: DROPOUT
  dropout_param {
    dropout_ratio: 0.5
  }
}
layers {
  bottom: "fc7"
  top: "fc8_MIT"
  name: "fc8_MIT"
  type: INNER_PRODUCT
  blobs_lr: 10
  blobs_lr: 20
  weight_decay: 1
  weight_decay: 0
  inner_product_param {
    num_output: 67
    weight_filler {
      type: "gaussian"
      std: 0.01
    }
    bias_filler {
      type: "constant"
      value: 0
    }
  }
}
layers {
  bottom: "fc8_MIT"
  bottom: "label"
  name: "loss"
  type: SOFTMAX_LOSS
}
layers {
  bottom: "fc8_MIT"
  bottom: "label"
  top: "accuracy"
  name: "accuracy"
  type: ACCURACY
  include {
    phase: TEST
  }
}
state {
  phase: TEST
}
I1127 01:55:51.235291 37029 net.cpp:67] Creating Layer data
I1127 01:55:51.235301 37029 net.cpp:356] data -> data
I1127 01:55:51.235312 37029 net.cpp:356] data -> label
I1127 01:55:51.235321 37029 net.cpp:96] Setting up data
I1127 01:55:51.235328 37029 image_data_layer.cpp:30] Opening file MIT_test.txt
I1127 01:55:51.236490 37029 image_data_layer.cpp:45] A total of 1340 images.
I1127 01:55:51.243803 37029 image_data_layer.cpp:73] output data size: 128,3,227,227
I1127 01:55:51.244143 37029 base_data_layer.cpp:36] Loading mean file from/data/sichen/caffe_svcl/caffe/data/ilsvrc12/imagenet_mean.binaryproto
I1127 01:55:51.296705 37029 net.cpp:103] Top shape: 128 3 227 227 (19787136)
I1127 01:55:51.296720 37029 net.cpp:103] Top shape: 128 1 1 1 (128)
I1127 01:55:51.296746 37029 net.cpp:67] Creating Layer label_data_1_split
I1127 01:55:51.296751 37029 net.cpp:394] label_data_1_split <- label
I1127 01:55:51.296767 37029 net.cpp:356] label_data_1_split -> label_data_1_split_0
I1127 01:55:51.296777 37029 net.cpp:356] label_data_1_split -> label_data_1_split_1
I1127 01:55:51.296784 37029 net.cpp:96] Setting up label_data_1_split
I1127 01:55:51.296802 37029 net.cpp:103] Top shape: 128 1 1 1 (128)
I1127 01:55:51.296808 37029 net.cpp:103] Top shape: 128 1 1 1 (128)
I1127 01:55:51.296818 37029 net.cpp:67] Creating Layer conv1
I1127 01:55:51.296821 37029 net.cpp:394] conv1 <- data
I1127 01:55:51.296828 37029 net.cpp:356] conv1 -> conv1
I1127 01:55:51.296844 37029 net.cpp:96] Setting up conv1
I1127 01:55:51.298383 37029 net.cpp:103] Top shape: 128 96 55 55 (37171200)
I1127 01:55:51.298415 37029 net.cpp:67] Creating Layer relu1
I1127 01:55:51.298421 37029 net.cpp:394] relu1 <- conv1
I1127 01:55:51.298429 37029 net.cpp:345] relu1 -> conv1 (in-place)
I1127 01:55:51.298435 37029 net.cpp:96] Setting up relu1
I1127 01:55:51.298439 37029 net.cpp:103] Top shape: 128 96 55 55 (37171200)
I1127 01:55:51.298447 37029 net.cpp:67] Creating Layer pool1
I1127 01:55:51.298451 37029 net.cpp:394] pool1 <- conv1
I1127 01:55:51.298457 37029 net.cpp:356] pool1 -> pool1
I1127 01:55:51.298463 37029 net.cpp:96] Setting up pool1
I1127 01:55:51.298498 37029 net.cpp:103] Top shape: 128 96 27 27 (8957952)
I1127 01:55:51.298507 37029 net.cpp:67] Creating Layer norm1
I1127 01:55:51.298512 37029 net.cpp:394] norm1 <- pool1
I1127 01:55:51.298518 37029 net.cpp:356] norm1 -> norm1
I1127 01:55:51.298526 37029 net.cpp:96] Setting up norm1
I1127 01:55:51.298539 37029 net.cpp:103] Top shape: 128 96 27 27 (8957952)
I1127 01:55:51.298548 37029 net.cpp:67] Creating Layer conv2
I1127 01:55:51.298552 37029 net.cpp:394] conv2 <- norm1
I1127 01:55:51.298559 37029 net.cpp:356] conv2 -> conv2
I1127 01:55:51.298566 37029 net.cpp:96] Setting up conv2
I1127 01:55:51.311437 37029 net.cpp:103] Top shape: 128 256 27 27 (23887872)
I1127 01:55:51.311455 37029 net.cpp:67] Creating Layer relu2
I1127 01:55:51.311473 37029 net.cpp:394] relu2 <- conv2
I1127 01:55:51.311480 37029 net.cpp:345] relu2 -> conv2 (in-place)
I1127 01:55:51.311486 37029 net.cpp:96] Setting up relu2
I1127 01:55:51.311491 37029 net.cpp:103] Top shape: 128 256 27 27 (23887872)
I1127 01:55:51.311498 37029 net.cpp:67] Creating Layer pool2
I1127 01:55:51.311502 37029 net.cpp:394] pool2 <- conv2
I1127 01:55:51.311507 37029 net.cpp:356] pool2 -> pool2
I1127 01:55:51.311516 37029 net.cpp:96] Setting up pool2
I1127 01:55:51.311533 37029 net.cpp:103] Top shape: 128 256 13 13 (5537792)
I1127 01:55:51.311542 37029 net.cpp:67] Creating Layer norm2
I1127 01:55:51.311545 37029 net.cpp:394] norm2 <- pool2
I1127 01:55:51.311552 37029 net.cpp:356] norm2 -> norm2
I1127 01:55:51.311558 37029 net.cpp:96] Setting up norm2
I1127 01:55:51.311563 37029 net.cpp:103] Top shape: 128 256 13 13 (5537792)
I1127 01:55:51.311569 37029 net.cpp:67] Creating Layer conv3
I1127 01:55:51.311573 37029 net.cpp:394] conv3 <- norm2
I1127 01:55:51.311580 37029 net.cpp:356] conv3 -> conv3
I1127 01:55:51.311610 37029 net.cpp:96] Setting up conv3
I1127 01:55:51.350786 37029 net.cpp:103] Top shape: 128 384 13 13 (8306688)
I1127 01:55:51.350806 37029 net.cpp:67] Creating Layer relu3
I1127 01:55:51.350824 37029 net.cpp:394] relu3 <- conv3
I1127 01:55:51.350831 37029 net.cpp:345] relu3 -> conv3 (in-place)
I1127 01:55:51.350838 37029 net.cpp:96] Setting up relu3
I1127 01:55:51.350843 37029 net.cpp:103] Top shape: 128 384 13 13 (8306688)
I1127 01:55:51.350850 37029 net.cpp:67] Creating Layer conv4
I1127 01:55:51.350854 37029 net.cpp:394] conv4 <- conv3
I1127 01:55:51.350860 37029 net.cpp:356] conv4 -> conv4
I1127 01:55:51.350867 37029 net.cpp:96] Setting up conv4
I1127 01:55:51.380488 37029 net.cpp:103] Top shape: 128 384 13 13 (8306688)
I1127 01:55:51.380519 37029 net.cpp:67] Creating Layer relu4
I1127 01:55:51.380525 37029 net.cpp:394] relu4 <- conv4
I1127 01:55:51.380533 37029 net.cpp:345] relu4 -> conv4 (in-place)
I1127 01:55:51.380540 37029 net.cpp:96] Setting up relu4
I1127 01:55:51.380544 37029 net.cpp:103] Top shape: 128 384 13 13 (8306688)
I1127 01:55:51.380553 37029 net.cpp:67] Creating Layer conv5
I1127 01:55:51.380556 37029 net.cpp:394] conv5 <- conv4
I1127 01:55:51.380564 37029 net.cpp:356] conv5 -> conv5
I1127 01:55:51.380573 37029 net.cpp:96] Setting up conv5
I1127 01:55:51.400841 37029 net.cpp:103] Top shape: 128 256 13 13 (5537792)
I1127 01:55:51.400878 37029 net.cpp:67] Creating Layer relu5
I1127 01:55:51.400883 37029 net.cpp:394] relu5 <- conv5
I1127 01:55:51.400890 37029 net.cpp:345] relu5 -> conv5 (in-place)
I1127 01:55:51.400897 37029 net.cpp:96] Setting up relu5
I1127 01:55:51.400902 37029 net.cpp:103] Top shape: 128 256 13 13 (5537792)
I1127 01:55:51.400914 37029 net.cpp:67] Creating Layer pool5
I1127 01:55:51.400918 37029 net.cpp:394] pool5 <- conv5
I1127 01:55:51.400924 37029 net.cpp:356] pool5 -> pool5
I1127 01:55:51.400931 37029 net.cpp:96] Setting up pool5
I1127 01:55:51.400938 37029 net.cpp:103] Top shape: 128 256 6 6 (1179648)
I1127 01:55:51.400949 37029 net.cpp:67] Creating Layer fc6
I1127 01:55:51.400954 37029 net.cpp:394] fc6 <- pool5
I1127 01:55:51.400960 37029 net.cpp:356] fc6 -> fc6
I1127 01:55:51.400967 37029 net.cpp:96] Setting up fc6
I1127 01:55:53.135553 37029 net.cpp:103] Top shape: 128 4096 1 1 (524288)
I1127 01:55:53.135619 37029 net.cpp:67] Creating Layer relu6
I1127 01:55:53.135627 37029 net.cpp:394] relu6 <- fc6
I1127 01:55:53.135637 37029 net.cpp:345] relu6 -> fc6 (in-place)
I1127 01:55:53.135646 37029 net.cpp:96] Setting up relu6
I1127 01:55:53.135653 37029 net.cpp:103] Top shape: 128 4096 1 1 (524288)
I1127 01:55:53.135661 37029 net.cpp:67] Creating Layer drop6
I1127 01:55:53.135679 37029 net.cpp:394] drop6 <- fc6
I1127 01:55:53.135686 37029 net.cpp:345] drop6 -> fc6 (in-place)
I1127 01:55:53.135694 37029 net.cpp:96] Setting up drop6
I1127 01:55:53.135699 37029 net.cpp:103] Top shape: 128 4096 1 1 (524288)
I1127 01:55:53.135707 37029 net.cpp:67] Creating Layer fc7
I1127 01:55:53.135711 37029 net.cpp:394] fc7 <- fc6
I1127 01:55:53.135720 37029 net.cpp:356] fc7 -> fc7
I1127 01:55:53.135730 37029 net.cpp:96] Setting up fc7
I1127 01:55:53.897819 37029 net.cpp:103] Top shape: 128 4096 1 1 (524288)
I1127 01:55:53.897891 37029 net.cpp:67] Creating Layer relu7
I1127 01:55:53.897898 37029 net.cpp:394] relu7 <- fc7
I1127 01:55:53.897908 37029 net.cpp:345] relu7 -> fc7 (in-place)
I1127 01:55:53.897917 37029 net.cpp:96] Setting up relu7
I1127 01:55:53.897923 37029 net.cpp:103] Top shape: 128 4096 1 1 (524288)
I1127 01:55:53.897930 37029 net.cpp:67] Creating Layer drop7
I1127 01:55:53.897946 37029 net.cpp:394] drop7 <- fc7
I1127 01:55:53.897956 37029 net.cpp:345] drop7 -> fc7 (in-place)
I1127 01:55:53.897964 37029 net.cpp:96] Setting up drop7
I1127 01:55:53.897969 37029 net.cpp:103] Top shape: 128 4096 1 1 (524288)
I1127 01:55:53.897976 37029 net.cpp:67] Creating Layer fc8_MIT
I1127 01:55:53.897981 37029 net.cpp:394] fc8_MIT <- fc7
I1127 01:55:53.897987 37029 net.cpp:356] fc8_MIT -> fc8_MIT
I1127 01:55:53.898000 37029 net.cpp:96] Setting up fc8_MIT
I1127 01:55:53.909978 37029 net.cpp:103] Top shape: 128 67 1 1 (8576)
I1127 01:55:53.910037 37029 net.cpp:67] Creating Layer fc8_MIT_fc8_MIT_0_split
I1127 01:55:53.910055 37029 net.cpp:394] fc8_MIT_fc8_MIT_0_split <- fc8_MIT
I1127 01:55:53.910063 37029 net.cpp:356] fc8_MIT_fc8_MIT_0_split -> fc8_MIT_fc8_MIT_0_split_0
I1127 01:55:53.910071 37029 net.cpp:356] fc8_MIT_fc8_MIT_0_split -> fc8_MIT_fc8_MIT_0_split_1
I1127 01:55:53.910079 37029 net.cpp:96] Setting up fc8_MIT_fc8_MIT_0_split
I1127 01:55:53.910084 37029 net.cpp:103] Top shape: 128 67 1 1 (8576)
I1127 01:55:53.910089 37029 net.cpp:103] Top shape: 128 67 1 1 (8576)
I1127 01:55:53.910097 37029 net.cpp:67] Creating Layer loss
I1127 01:55:53.910115 37029 net.cpp:394] loss <- fc8_MIT_fc8_MIT_0_split_0
I1127 01:55:53.910120 37029 net.cpp:394] loss <- label_data_1_split_0
I1127 01:55:53.910130 37029 net.cpp:356] loss -> (automatic)
I1127 01:55:53.910135 37029 net.cpp:96] Setting up loss
I1127 01:55:53.910145 37029 net.cpp:103] Top shape: 1 1 1 1 (1)
I1127 01:55:53.910150 37029 net.cpp:109]     with loss weight 1
I1127 01:55:53.910171 37029 net.cpp:67] Creating Layer accuracy
I1127 01:55:53.910176 37029 net.cpp:394] accuracy <- fc8_MIT_fc8_MIT_0_split_1
I1127 01:55:53.910181 37029 net.cpp:394] accuracy <- label_data_1_split_1
I1127 01:55:53.910190 37029 net.cpp:356] accuracy -> accuracy
I1127 01:55:53.910197 37029 net.cpp:96] Setting up accuracy
I1127 01:55:53.910208 37029 net.cpp:103] Top shape: 1 1 1 1 (1)
I1127 01:55:53.910213 37029 net.cpp:172] accuracy does not need backward computation.
I1127 01:55:53.910217 37029 net.cpp:170] loss needs backward computation.
I1127 01:55:53.910222 37029 net.cpp:170] fc8_MIT_fc8_MIT_0_split needs backward computation.
I1127 01:55:53.910224 37029 net.cpp:170] fc8_MIT needs backward computation.
I1127 01:55:53.910228 37029 net.cpp:170] drop7 needs backward computation.
…
